Backend/model/aodnet.pth (torch, 6773 bytes, 10 tensors)

conv1.weight f4 [3, 3, 3, 3]
-0.16561261 -0.063493855 0.03614266 -0.14067754 -0.018299244 -0.09847075 -0.0468854 0.1495941
0.027823668 0.068386905 -0.15438883 0.05504537 -0.0023389054 0.002093489 -0.008163462 -0.124381796
0.09613973 0.090404384 0.055226766 -0.03968424 0.03807203 0.065476686 0.2901637 -0.04624338
0.11165259 0.28768888 0.2724691 0.07443021 0.1815428 0.1335408 0.054284353 0.1126842
-0.041445162 -0.025284987 0.09753563 0.12805247 -0.18354672 0.110762045 -0.06837122 0.11448811
-0.10436975 -0.18846878 0.08072231 0.09174393 0.12523694 -0.011687563 -0.12252348 -0.086772986
-0.10433109 -0.072649926 -0.010929326 -0.16015124 -0.18839079 -0.19296376 0.13829008 -0.103909425
0.10922544 0.10677294 -0.040792167 -0.039752122 0.015104115 -0.047358826 -0.0124845235 -0.15527283
0.0020642953 0.10169578 0.011079676 0.12397863 -0.08410509 0.12438344 -0.17218293 -0.10896015
0.23797993 -0.075251855 0.23230954 0.24124193 0.24148212 0.116268516 0.14869335 -0.08145578
-0.00021975442
00000000: 5a96 29be 1109 82bd 530a 143d c60d 10be
00000010: 4ce8 95bc 08ab c9bd e80a 40bd 322f 193e
00000020: 76ee e33c 6f0e 8c3d 1b18 1ebe 4177 613d
00000030: 5248 19bb eb32 093b 0bc0 05bc e2bb febd
00000040: e8e4 c43d ef25 b93d 7635 623d f18b 22bd
00000050: 6bf1 1b3d a418 863d 5690 943e b369 3dbd
00000060: 1daa e43d f54b 933e 1281 8b3e de6e 983d
00000070: 5be6 393e ebbe 083e 4559 5e3d f9c6 e63d
00000080: 67c2 29bd 7622 cfbc c3c0 c73d 3020 033e
00000090: acf3 3bbe 36d7 e23d 3606 8cbd be78 ea3d
000000a0: cfbf d5bd f6fd 40be bd51 a53d 3ee4 bb3d
000000b0: 1d3e 003e 317d 3fbc 97ed fabd 09b6 b1bd
000000c0: 8aab d5bd 7cc9 94bd ea10 33bc b0fe 23be
000000d0: 84e9 40be 4b98 45be ea9b 0d3e 77ce d4bd
000000e0: 96b1 df3d c5ab da3d b015 27bd 1fd3 22bd
000000f0: 4077 773c 54fb 41bd e38b 4cbc d7ff 1ebe
00000100: 2149 073b e145 d03d 8887 353c 82e8 fd3d
00000110: 4a3f acbd bfbc fe3d b950 30be 8026 dfbd
00000120: 03b1 733e a51d 9abd 8de2 6d3e 2008 773e
00000130: 1747 773e 301e ee3d 1243 183e 4ad2 a6bd
00000140: e16d 66b9

conv1.bias f4 [3]
0.0454859 0.3015771 0.10419301
00000000: 6c4f 3a3d 5068 9a3e 2563 d53d

conv2.weight f4 [3, 3, 3, 3]
0.06630941 -0.016200675 0.015576993 -0.102657735 -0.012483494 0.00066613225 -0.21663013 0.088304386
-0.16901 -0.037591957 0.040506043 0.16712472 0.0106151 0.18162389 0.23173115 -0.17819916
-0.19646662 -0.16825055 -0.12640785 -0.033989903 -0.030556934 -0.049489062 0.043332353 0.15067235
-0.030867048 -0.23938665 -0.02099512 -0.048812177 0.054245595 -0.29084954 0.014378855 0.085797705
0.008341676 0.07507695 -0.06809239 -0.04674805 0.021027174 -0.08790533 -0.17777179 0.11021354
0.10759083 -0.097625345 0.014839847 0.24979508 0.022338055 0.019053966 -0.04769677 -0.21965834
-0.063543715 0.16907555 -0.11109954 -0.06535432 0.030583242 0.10184478 0.17539486 -0.01339031
0.15439276 -0.06041781 0.13916352 0.15521543 -0.030205552 0.09270892 -0.04121628 -0.08106601
-0.34928373 -0.18644631 -0.38649946 -0.17986272 -0.2554956 -0.23620433 -0.010455086 -0.2253784
-0.13126357 -0.051924225 -0.09233456 -0.014476353 0.17087069 0.022279967 0.1383853 0.21519989
0.07103955
00000000: 3acd 873d 47b7 84bc a536 7f3c 383e d2bd
00000010: 9287 4cbc 619f 2e3a 4ad4 5dbe eed8 b43d
00000020: f510 2dbe 06fa 19bd aae9 253d be22 2b3e
00000030: f5ea 2d3c 9dfb 393e ee4a 6d3e d779 36be
00000040: 8c2e 49be df49 2cbe 0f71 01be ff38 0bbd
00000050: 8952 fabc 0bb5 4abd 447d 313d da49 1a3e
00000060: e4dc fcbc c621 75be f5fd abbc 47ef 47bd
00000070: a130 5e3d 3bea 94be 4a95 6b3c b5b6 af3d
00000080: 86ab 083c f2c1 993d 0674 8bbd e27a 3fbd
00000090: 2e41 ac3c b607 b4bd cf09 36be a3b7 e13d
000000a0: 9558 dc3d ccef c7bd d422 733c 48ca 7f3e
000000b0: 4cfe b63c 1017 9c3c b05d 43bd 1eee 60be
000000c0: 3523 82bd 2422 2d3e 2888 e3bd 7cd8 85bd
000000d0: b589 fa3c ff93 d03d b69a 333e 0863 5bbc
000000e0: 2319 1e3e aa78 77bd e280 0e3e cbf0 1e3e
000000f0: a271 f7bc 2dde bd3d 67d2 28bd f005 a6bd
00000100: 51d5 b2be c8eb 3ebe 42e3 c5be ef2d 38be
00000110: 52d0 82be 8cdf 71be cf4b 2bbc 98c9 66be
00000120: f569 06be 7fae 54bd e719 bdbd 3a2e 6dbc
00000130: baf8 2e3e 7a84 b63c e0b4 0d3e 5c5d 5c3e
00000140: 2f7d 913d

conv2.bias f4 [3]
0.24965401 0.12640803 -0.1840769
00000000: 4da5 7f3e 1b71 013e a87e 3cbe

conv3.weight f4 [3, 3, 3, 3]
-0.22820021 0.4720438 -0.061780885 -0.18605769 0.106124744 -0.20271364 -0.1743374 0.25555417
-0.02172821 0.18853575 0.9549135 0.03306946 -0.96670127 0.23518278 -0.63902545 -0.50121737
0.24456084 -0.5925708 0.14060453 -0.0476141 -0.023052381 -0.016780915 -0.09294935 0.13667035
-0.13134119 -0.15368071 -0.024564035 0.06916645 0.12130565 0.19927646 0.069742 -0.13548088
0.13768207 -0.04336332 -0.105556905 0.14624406 0.012774747 -0.14194499 -0.008016418 -0.19410737
-0.21063592 0.35307267 0.005958331 0.18287909 0.42696127 -0.019417219 -0.016425598 0.3107932
0.09140803 0.23838739 0.09044334 0.23829511 -0.020776752 0.04747941 0.00016490594 0.077250585
-0.026725085 -0.024112538 -0.18847498 -0.18599667 -0.12197299 0.052150905 -0.018402223 0.022088334
-0.07591709 0.015356762 -0.16566128 -0.16391823 0.009938794 -0.17678244 0.07315195 0.11798524
-0.094590895 0.093975045 -0.04380515 0.023100803 0.05200105 -0.058484595 0.07847529 0.021021377
0.09874358
00000000: 51ad 69be baaf f13e f40d 7dbd e885 3ebe
00000010: ee57 d93d 2a94 4fbe 8185 32be ffd7 823e
00000020: 5cff b1bc 840f 413e 3675 743f d873 073d
00000030: bc79 77bf c1d3 703e 2c97 23bf c84f 00bf
00000040: 286e 7a3e b8b2 17bf a2fa 0f3e 0107 43bd
00000050: 59d8 bcbc 2178 89bc 3b5c bebd 50f3 0b3e
00000060: 4e7e 06be 7a5e 1dbe 843a c9bc 24a7 8d3d
00000070: 196f f83d 210f 4c3e e5d4 8e3d 80bb 0abe
00000080: 87fc 0c3e bd9d 31bd 382e d8bd 01c1 153e
00000090: 2c4d 513c 075a 11be 4b57 03bc 15c4 46be
000000a0: f1b0 57be f1c5 b43e 1a3e c33b a844 3b3e
000000b0: ab9a da3e dc10 9fbc fa8e 86bc 4920 9f3e
000000c0: 2234 bb3d d31b 743e 5c3a b93d a203 743e
000000d0: 0234 aabc c579 423d 9aea 2c39 8e35 9e3d
000000e0: 91ee dabc a887 c5bc 96ff 40be e975 3ebe
000000f0: facc f9bd 309c 553d 42c0 96bc 98f2 b43c
00000100: 6b7a 9bbd ee9a 7b3c 1ca3 29be 2eda 27be
00000110: 53d6 223c 7506 35be b1d0 953d 3fa2 f13d
00000120: dfb8 c1bd fd75 c03d 076d 33bd e53d bd3c
00000130: 0eff 543d 8b8d 6fbd a7b7 a03d 0635 ac3c
00000140: 133a ca3d

conv3.bias f4 [3]
-0.054989845 -0.22193876 -0.18611218
00000000: 083d 61bd ea43 63be 3194 3ebe

conv4.weight f4 [3, 3, 3, 3]
0.43102473 -0.40278143 0.05555039 0.76055884 0.12466063 -0.0068175844 0.61395705 -0.28454864
-0.062287346 0.039787706 0.24205054 0.022478815 0.22993602 0.024814995 0.09503775 0.09068198
-0.07690332 0.054330785 -0.18573166 -0.11242285 0.15904982 0.18716995 -0.026857162 -0.041849308
0.010850939 0.0026966985 0.08819607 -0.16509654 -0.060624544 0.12532486 0.1383672 -0.100462675
0.16007987 0.06285972 0.16889115 0.0040901857 -0.12550482 0.08390835 0.0462382 0.10729944
-0.031244742 0.05567608 -0.13678522 0.07005676 0.0559431 0.061519023 0.18139386 -0.09069083
-0.11584073 0.049704045 0.15194139 -0.1354962 0.06858752 -0.1691585 0.05172989 0.06389023
-0.10130402 0.18200026 0.11826116 0.048974186 0.058171682 0.4172401 0.022091867 -0.18585612
-0.3100833 -0.10954329 -0.25890806 -0.17890534 0.055272374 0.030657126 -0.008762308 -0.19751127
0.026750345 0.17144583 0.10364978 0.029805303 -0.17675939 -0.02494948 -0.1072065 0.018667016
0.037895422
00000000: 46af dc3e 5e39 cebe ce88 633d fcb3 423f
00000010: 134e ff3d 0b66 dfbb 4a2c 1d3f 5cb0 91be
00000020: 0421 7fbd 6ff8 223d 19dc 773e 7e25 b83c
00000030: 5974 6b3e d148 cb3c 27a3 c23d 79b7 b93d
00000040: 7d7f 9dbd f589 5e3d 7130 3ebe f43d e6bd
00000050: f5dd 223e 7ba9 3f3e 8d03 dcbc 2e6a 2bbd
00000060: 23c8 313c 18bb 303b 24a0 b43d 110f 29be
00000070: 7151 78bd 2955 003e 22b0 0d3e 60bf cdbd
00000080: faeb 233e 99bc 803d cdf1 2c3e f706 863b
00000090: 5684 00be 24d8 ab3d 4464 3d3d cfbf db3d
000000a0: f9f4 ffbc 9a0c 643d 6d11 0cbe eb79 8f3d
000000b0: 9824 653d 5ffb 7b3d 50bf 393e 1dbc b9bd
000000c0: e83d edbd 7896 4b3d 8696 1b3e 84bf 0abe
000000d0: 9d77 8c3d e337 2dbe b9e2 533d e2d8 823d
000000e0: 7b78 cfbd 475e 3a3e e832 f23d 2899 483d
000000f0: 6e45 6e3d 7fa0 d53e 01fa b43c 1151 3ebe
00000100: 3dc3 9ebe 3c58 e0bd 998f 84be f632 37be
00000110: 4965 623d a724 fb3c c98f 0fbc 6540 4abe
00000120: 8a23 db3c 7f8f 2f3e 5646 d43d 402a f43c
00000130: 6a00 35be da62 ccbc 158f dbbd 92eb 983c
00000140: 3b38 1b3d

conv4.bias f4 [3]
-0.05753248 -0.1764753 0.27908167
00000000: 2ea7 6bbd f1b5 34be cbe3 8e3e

conv5.weight f4 [3, 12, 3, 3]
0.080511674 0.148801 0.15182258 -0.010285523 0.15451324 0.013835546 0.13520458 0.005400781
-0.031119741 0.005344938 0.16237222 0.015177473 0.05057733 0.07813861 0.07505651 -0.11377482
0.011819915 -0.121214874 0.13005616 0.09074349 0.11426902 0.018506182 0.020084694 0.09055834
0.11512508 0.0056017414 0.13458392 -0.034854826 0.04012774 0.05692417 0.2647257 0.22901952
0.18189868 -0.0335387 0.013205955 -0.07007901 -0.25464553 0.07226081 -0.2348785 0.20942628
0.37523398 0.232127 -0.23583311 -0.012318172 -0.18174583 -0.086836524 -0.0027419305 0.0039424063
0.026703412 0.120701745 -0.02820271 -0.031891823 -0.004263541 -0.009376449 -0.19751787 0.16885307
-0.14159516 -0.19931433 0.21093532 0.03180572 0.10022217 0.5068353 0.23297665 -0.16754049
-0.18935136 -0.00048262932 -0.034520272 -0.14515625 -0.010218996 -0.06081647 -0.077705465 -0.13595983
-0.017931938 -0.039408345 -0.03359478 -0.034209378 -0.02931492 -0.010284964 -0.06593232 -0.037498273
0.06492957 -0.056988616 -0.03924221 0.076470226 -0.023587942 -0.07305291 0.105400056 0.0014196073
0.039184965 0.32899404 0.09007385 0.051024027 0.0921436 0.013912516 0.021875205 -0.031634044
0.04816617 0.016063944 -0.03069782 0.1388735 0.27057728 0.16593483 0.32259145 0.21000579
0.16801721 0.09059863 0.10518173 0.16701838 0.15170836 0.20695361 0.044609994 0.04786987
0.031642802 0.073226295 0.11488817 0.033981975 0.06935404 0.025629206 0.13221209 0.056123726
0.09003156 0.1405152 0.023370707 -0.1484554 0.041200258 -0.16100772 0.0050538755 0.13213784
0.11407489 0.07543121 0.058172688 0.1449609 0.10692844 0.015582009 0.06657932 -0.03030365
0.009277189 -0.037935767 0.23659138 0.26735085 0.20365785 -0.032852314 0.052670233 3.0421184e-05
-0.2452434 -0.087139614 -0.24630935 0.2716736 0.3672426 0.25767064 -0.1286139 0.0242404
-0.1617924 -0.019874806 0.0046155686 0.018419487 -0.051426813 0.06921389 0.069985785 0.0060390774
-0.03269111 -0.03176542 -0.17187592 0.23030661 -0.14970635 -0.09608484 0.2000911 0.015028118
0.0648465 0.5057042 0.25619063 -0.099096365 -0.11762513 -0.12384456 -0.059933256 -0.12634814
-0.042614788 -0.15264143 -0.012544289 -0.13440536 -0.059575595 -0.045641836 -0.0551146 0.027076486
-0.041995436 0.03620993 -0.019134158 0.006520977 0.007936764 -0.030762479 -0.1820163 0.05731979
-0.09079891 -0.07288128 0.21227506 0.02493542 -0.033312198 0.17948419 0.009739912 -0.02633301
0.06569637 -0.018095363 0.089053355 0.0016196135 0.030169137 0.003930281 -0.064796254 0.17445701
0.23619851 0.12409773 0.16258048 0.2672402 0.295954 0.14998034 0.19212641 0.087343
0.12520872 0.14279117 0.10672233 0.072997965 0.100572854 0.1155446 0.033485852 0.09527723
-0.020477086 0.003599277 0.059673987 0.05572654 -0.08215776 0.1210182 0.08803226 -0.09343246
-0.014490905 -0.055653736 0.10724874 0.06583432 0.002078857 0.094174616 0.13808139 0.18172559
0.02953579 0.063973315 0.009930389 0.05342107 0.098214656 -0.09429799 0.061712503 0.27353653
0.19166216 0.0059601553 -0.031214213 -0.031071557 -0.31544054 -0.15041357 -0.19645467 0.25180352
00000000: 4ee3 a43d 4a5f 183e 6177 1b3e 9c84 28bc
00000010: b838 1e3e 7cae 623c 1273 0a3e 09f9 b03b
00000020: d4ee febc 9724 af3b e744 263e f0aa 783c
00000030: 2d2a 4f3d 2307 a03d 3ab7 993d c602 e9bd
00000040: 51a8 413c 813f f8bd 712d 053e b9d7 b93d
00000050: e005 ea3d 479a 973c a888 a43c a776 b93d
00000060: b3c6 eb3d d08e b73b 5ed0 093e efc3 0ebd
00000070: fc5c 243d 5229 693d 208a 873e 1884 6a3e
00000080: a643 3a3e e05f 09bd ca5d 583c 9685 8fbd
00000090: e660 82be 7afd 933d fd83 70be d873 563e
000000a0: ab1e c03e b3b2 6d3e 3c7e 71be 28d2 49bc
000000b0: 941b 3abe 59d7 b1bd f6b1 33bb 4d2f 813b
000000c0: 1dc1 da3c 7a32 f73d 5f09 e7bc 00a1 02bd
000000d0: 2db5 8bbb ad9f 19bc 2042 4abe d2e7 2c3e
000000e0: 52fe 10be 0e19 4cbe 6eff 573e b746 023d
000000f0: 4841 cd3d f5bf 013f 6e91 6e3e bc8f 2bbe
00000100: 53e5 41be 6909 fdb9 2165 0dbd d7a3 14be
00000110: 936d 27bc b11a 79bd 0b24 9fbd 0e39 0bbe
00000120: 00e6 92bc a56a 21bd ae9a 09bd 221f 0cbd
00000130: d825 f0bc 4482 28bc 8607 87bd ca97 19bd
00000140: cbf9 843d e56c 69bd 71bc 20bd 6c9c 9c3d
00000150: 803b c1bc c49c 95bd fcdb d73d 1e12 ba3a
00000160: 6a80 203d e871 a83e a378 b83d 92fe 503d
00000170: c9b5 bc3d 52f1 633c a133 b33c b392 01bd
00000180: e449 453d 8898 833c ff79 fbbc db34 0e3e
00000190: 1b89 8a3e d2ea 293e b52a a53e c20b 573e
000001a0: b40c 2c3e c68b b93d 8569 d73d de06 2b3e
000001b0: 7059 1b3e a6eb 533e f8b8 363d 3213 443d
000001c0: e29b 013d abf7 953d 7d4a eb3d af30 0b3d
000001d0: 7e09 8e3d 57f4 d13c 9b62 073e fee1 653d
000001e0: 7762 b83d 37e3 0f3e ed73 bf3c b104 18be
000001f0: 9ac1 283d 35df 24be fb9a a53b 244f 073e
00000200: 19a0 e93d ae7b 9a3d 7c46 6e3d a170 143e
00000210: 4cfd da3d af4b 7f3c bd5a 883d 5c3f f8bc
00000220: 5aff 173c 8962 1bbd 0345 723e 36e2 883e
00000230: af8b 503e 2690 06bd bebc 573d ff30 ff37
00000240: 1621 7bbe 4176 b2bd 8538 7cbe cd18 8b3e
00000250: 3907 bc3e 68ed 833e 5db3 03be ce93 c63c
00000260: e8ac 25be 7dd0 a2bc 323e 973b 77e4 963c
00000270: eca4 52bd 03c0 8d3d b554 8f3d 74e3 c53b
00000280: 1de7 05bd 751c 02bd 3e00 30be 7fd5 6b3e
00000290: 9f4c 19be 21c8 c4bd aee4 4c3e 7f38 763c
000002a0: 3ece 843d d575 013f 6b2b 833e 09f3 cabd
000002b0: 72e5 f0bd 37a2 fdbd 937c 75bd 6861 01be
000002c0: d88c 2ebd 094e 1cbe 9086 4dbc 8fa1 09be
000002d0: 8a05 74bd eff2 3abd d9bf 61bd 82cf dd3c
000002e0: 6803 2cbd dd50 143d 3dbf 9cbc ebad d53b
000002f0: 3309 023c 9801 fcbc 7b62 3abe 28c8 6a3d
00000300: c7f4 b9bd c842 95bd a25e 593e 5e45 cc3c
00000310: 5f72 08bd b4ca 373e 2794 1f3c 53b8 d7bc
00000320: d28b 863d ba3c 94bc 9b61 b63d 3649 d43a
00000330: 4425 f73c 96c9 803b e6b3 84bd dca4 323e
00000340: 06de 713e f326 fe3d 7f7b 263e b5d3 883e
00000350: 4887 973e 7294 193e c9bc 443e e3e0 b23d
00000360: b736 003e d937 123e 3d91 da3d f57f 953d
00000370: 24f9 cd3d a6a2 ec3d 7628 093d b520 c33d
00000380: 90bf a7bc d9e1 6b3b b66c 743d 8341 643d
00000390: 5442 a8bd 64d8 f73d 424a b43d 8559 bfbd
000003a0: 436b 6dbc 2cf5 63bd 3aa5 db3d 25d4 863d
000003b0: 6f3d 083b 9fde c03d 3565 0d3e 4616 3a3e
000003c0: 0bf5 f13c 7104 833d 12b3 223c 0dd0 5a3d
000003d0: c424 c93d 4e1f c1bd 40c6 7c3d fb0c 8c3e
000003e0: 1643 443e 684d c33b f3b4 ffbc c789 febc
000003f0: 6c81 a1be 0406 1abe 6a2b 49be 64ec 803e

conv5.bias f4 [3]
0.21679999 0.1606441 0.22082861
00000000: d100 5e3e e37f 243e e520 623e
