Backend/model/aqi_regressor.pth (torch, 6045 bytes, 5 tensors)

model.0.weight f4 [32, 4]
000000 cd 22 b2 3d 7e f0 bf 3d 0a 4e 05 bc de f9 14 be
       0.08698044 0.09372042 -0.008136282 -0.14548442
000010 7f 25 8d 3e 49 f7 90 3e 3a ac 1d 3d 66 8f 41 3e
       0.2756767 0.28313664 0.038494326 0.18902358
000020 75 55 e1 bc 01 f0 fd bd e5 2f 5b 3c 3f 3b 7b 3d
       -0.02750657 -0.12399293 0.013378118 0.0613358
000030 d9 9f 87 be b6 65 cb 3e e7 32 e0 3e 74 d1 cf 3e
       -0.26489142 0.39726037 0.43788835 0.40589488
000040 09 27 33 3e 56 22 eb 3d 4b 90 b9 be c1 ff 57 be
       0.1749536 0.114811584 -0.362429 -0.21093656
000050 8c 21 f9 3e f4 85 c0 bb e1 83 ea bb de 8d 96 3b
       0.48658407 -0.0058753435 -0.0071568345 0.0045945486
000060 c7 4f ee bd 9f f7 5c bd e5 28 82 bd 12 f1 30 3d
       -0.1163631 -0.053947087 -0.06355456 0.043198653
000070 c7 b0 a7 be cf bc 83 3e 50 8e e6 3e 92 9f ff 3d
       -0.32752058 0.25729987 0.4503045 0.124816075
000080 53 21 0b be ef a1 62 bc 8b 21 5a be 44 a2 05 3e
       -0.13586931 -0.013832553 -0.21301858 0.1305018
000090 64 f4 ce 3d 05 21 d5 3e 31 94 78 3d e8 40 fb 3d
       0.101052076 0.41626754 0.0606882 0.12268239
0000a0 79 ed d9 be d0 84 cd 3e fe b0 c1 3e 61 a7 43 be
       -0.4256399 0.4014039 0.37830347 -0.19106819
0000b0 61 36 b8 3e a4 af df be 13 51 67 be f9 67 c5 be
       0.35978988 -0.4368869 -0.22589521 -0.38555887
0000c0 6f fe c4 3e 72 2b b5 3e 00 ed 82 be 9b 60 d3 3e
       0.38475367 0.3538471 -0.25571442 0.41284642
0000d0 1f b3 1b 3f 04 ca fc 3b 4e fb a1 3b 69 e1 4f 3b
       0.6082019 0.007714512 0.004943288 0.0031720048
0000e0 7c a8 95 3e 98 cc 9c be ad 92 42 3e fa 74 59 3d
       0.29230106 -0.30624843 0.19001265 0.053090073
0000f0 8f 18 52 3d ac 36 97 3e 92 27 d3 be 80 db 93 3e
       0.051292952 0.295339 -0.41241127 0.28878403
000100 a0 a3 16 be b7 59 c6 3d 20 ed d4 3e 27 b2 3b be
       -0.14710855 0.096850805 0.41587162 -0.18329678
000110 88 d5 60 3e 6b 24 1a be ce 0e 10 be ec 6a e5 bd
       0.21956456 -0.15052955 -0.14068148 -0.11202034
000120 2f f7 9b bd fc be 57 be e4 d9 d9 be 1d 68 b3 be
       -0.07615506 -0.21068949 -0.4254905 -0.3504037
000130 a9 1e 6a be 16 d9 31 3e cd 6d 83 3e 6a d7 aa be
       -0.22863258 0.17367968 0.2566971 -0.33367473
000140 d0 17 e0 be 80 5f a2 be 66 bd 89 be 8b 5b a4 bd
       -0.43768167 -0.31713486 -0.26902312 -0.08025273
000150 b9 7c ac bc 9c 1f 97 be 1b 92 b1 3e cd 5d c1 3d
       -0.021055566 -0.29516304 0.34681782 0.09441719
000160 ff de d6 bc 29 18 e7 be 2d 34 7a 3e 39 0b 76 bd
       -0.02622938 -0.4513562 0.24433966 -0.060069297
000170 f6 c7 7e 3e 31 f3 99 be e7 50 f6 bd cb 0b 6e be
       0.24880967 -0.30068353 -0.1202715 -0.23246686
000180 87 39 e3 bd 5c bd a4 be 80 0d ba bd 0a fb 87 be
       -0.11094957 -0.3217572 -0.09084606 -0.26558715
000190 aa 74 8c 3d 82 25 8d bc d9 f5 c1 3e 9a 60 ec bd
       0.068581894 -0.0172298 0.3788288 -0.11541863
0001a0 83 0e 56 3e 60 e5 61 be fb 2c 92 be 6f 6a cc 3d
       0.20903973 -0.22060156 -0.28549942 0.09981238
0001b0 f8 51 be be bd fc 48 3e ff d9 b8 bd 1d 11 2d 3e
       -0.37171912 0.19627662 -0.090259545 0.1690106
0001c0 2e 36 a9 3d 12 2b 79 bd 69 44 b2 bd cb 01 67 3e
       0.08262287 -0.06083209 -0.087044545 0.22559278
0001d0 ff dc 8e 3e 34 f2 4e 3e dc 82 d2 3e a0 46 ad 3d
       0.27902982 0.2020958 0.41115463 0.08460736
0001e0 98 56 f0 3d 14 84 34 be 5c 6d c2 be 38 af 90 be
       0.117352664 -0.17628509 -0.3797406 -0.2825868
0001f0 22 88 14 bd 0c b1 55 3d c6 6c a6 3d b4 c7 bc 3e
       -0.03626264 0.0521708 0.08126216 0.3687111

model.0.bias f4 [32]
000000 a1 56 c5 3e 60 77 9b 3e 57 eb da be 33 20 c7 3d
       0.38542655 0.30364513 -0.42757675 0.097229384
000010 8e f0 1d bf e2 e9 7d be 8f 15 e2 3e ca a9 b1 3e
       -0.6169518 -0.2479625 0.44157073 0.3469985
000020 14 b8 55 3e e3 77 e2 be 2a 26 be 3e e3 d4 38 3e
       0.20871001 -0.4423209 0.37138492 0.1804996
000030 d3 ee 7a be f1 e4 34 be e4 f0 f9 3d 8b 1f a8 3e
       -0.24505167 -0.17665459 0.12204149 0.32836565
000040 4c e8 01 3d 97 45 1d 3f 98 97 5c 3d 64 e8 5d 3e
       0.031715676 0.6143431 0.05385551 0.21670681
000050 41 f9 06 be 95 c8 76 3d 44 c5 af bd 32 11 ba 3e
       -0.1318102 0.060249884 -0.08582547 0.36341244
000060 a9 d9 67 be 99 63 bb be c4 76 e5 3e 39 03 73 be
       -0.22641625 -0.36599424 0.44817173 -0.23731698
000070 c8 57 f8 3d 74 18 49 3e 35 8a 89 be a5 64 82 be
       0.12126118 0.19638234 -0.26863256 -0.2546741

model.2.weight f4 [16, 32]
000000 41 8d 8d 3b 49 6e 91 bc 23 de fc bd df 30 11 be
       0.0043198173 -0.017752783 -0.12347057 -0.14178799
000010 bc 71 ac 3b 5e 06 d5 3d 9c 8a 9b bd 40 31 db bd
       0.0052625816 0.10401605 -0.07594797 -0.10702753
000020 79 37 65 3d 20 64 90 3c a9 fe 76 3d c9 59 cd bd
       0.055961106 0.017625868 0.060301457 -0.10026891
000030 54 fb ec 3d 77 04 fa bd 97 de be 3d a4 a8 a2 3c
       0.115713745 -0.12207883 0.093197994 0.019855805
000040 67 a3 1c be f2 38 03 3e ba df da 3c 9e 42 cf 3d
       -0.15296708 0.12814692 0.02671801 0.10120128
000050 97 f4 06 3e 27 0d ca 3d 48 e1 0e be 25 d6 20 3d
       0.13179241 0.0986579 -0.13953125 0.039266724
000060 87 2f 76 3d 19 c5 f6 3d 2f b6 60 bd d2 26 60 be
       0.06010392 0.12049312 -0.054861244 -0.21889809
000070 de 84 9f 3d d2 00 16 be 54 81 07 3d 6a 88 d5 bd
       0.07789014 -0.1464875 0.03308232 -0.104264095
000080 a8 0c 07 be 9d 83 78 3d da 48 1b bd d5 1a 02 be
       -0.13188422 0.06067239 -0.037911274 -0.12705548
000090 72 95 18 3e f6 4b 81 be 87 e5 d2 3d 1f 8f 51 3d
       0.14900759 -0.25253266 0.10297685 0.05116188
0000a0 d0 5c b4 3c 4b bc 06 3e 69 4f fe bd 45 a3 d4 bd
       0.022016913 0.13157766 -0.1241749 -0.10382704
0000b0 36 76 83 bd a4 e2 5f bf f6 e0 fe bc 86 1a ba 3d
       -0.06419031 -0.874552 -0.03111313 0.0908709
0000c0 cc de 8f 3b 29 93 24 3e 51 66 9d 3d 55 44 47 3c
       0.004390573 0.16071762 0.07685531 0.012162288
0000d0 aa e9 8e bd c0 6a 94 3c 6d 03 0a bb dd 6a f8 3d
       -0.06978162 0.018117309 -0.002105917 0.121297576
0000e0 45 63 d4 3d 7a ae dd bd 70 56 72 bd 29 09 04 3c
       0.10370497 -0.108242944 -0.059164464 0.008058825
0000f0 35 1b 71 bd ba dd 88 3e df 9a a8 bd e9 fb 4d bd
       -0.058863837 0.26731664 -0.08232664 -0.05028907
000100 80 70 10 be 25 a0 ca 3d 31 45 1d 3e 67 a6 7d 3d
       -0.14105415 0.098938264 0.15358426 0.06192627
000110 3c 02 40 3e 87 39 8b bb aa d3 ca 3d e2 98 3a bd
       0.18750852 -0.004248801 0.09903653 -0.045555957
000120 d4 45 31 be 60 aa 0c 3d 62 18 e0 3d e8 ca 04 be
       -0.17311794 0.03434217 0.10942151 -0.12968028
000130 0a 93 74 3d f4 1f 4e 3d 5d 08 e8 bd 70 b7 a5 3a
       0.05971054 0.05032344 -0.1132972 0.001264317
000140 7f c6 f8 3d 3a 6a 68 3d 6f 05 6b bd 40 e9 e3 bd
       0.12147235 0.05674193 -0.05737823 -0.11128473
000150 45 73 5e be c0 ab eb 3d b3 50 db bd b2 8e ae bd
       -0.2172366 0.11507368 -0.107087515 -0.08523311
000160 fa 95 09 3d 4e a8 18 3e 39 3b 29 3c bc 74 05 be
       0.033590294 0.14907953 0.010329061 -0.13032812
000170 04 f2 ac bd 73 a9 1b be b2 5d 3e 3d 56 4a bf 3c
       -0.08444598 -0.15201358 0.046476074 0.023350876
000180 f8 ee cb bc 4c 28 3f 3d e7 83 a3 bd 60 12 dc bd
       -0.024894223 0.04666929 -0.07984143 -0.10745692
000190 53 0a 73 bd 77 e5 bb 3d be c6 c8 3b ce 62 d3 3d
       -0.059336018 0.09174626 0.0061272075 0.1032158
0001a0 3d 14 d6 bc 4b 64 cc 3d d7 98 80 3d 2a 86 99 3d
       -0.026132697 0.09980067 0.06279152 0.07496293
0001b0 2a 4e 78 bd 1a 4e 29 3c 5b 80 2f be 97 02 1b 3d
       -0.060621418 0.010333562 -0.17138807 0.037844267
0001c0 97 79 0a 3c 54 3f 7b bd 30 67 df bd 98 69 56 3c
       0.008451841 -0.06133969 -0.10908353 0.013086699
0001d0 ff c0 05 3e d7 ad 4e 3d dd 58 20 3e 97 92 f0 3d
       0.13061903 0.050458755 0.15658899 0.1174671
0001e0 7e 94 7a 3d c5 64 ea 3d cd c7 d2 bd b0 7a b4 bd
       0.06117677 0.114450015 -0.10292015 -0.08812463
0001f0 ef dc 0b bd e1 e1 f6 bd 6d a6 05 be 18 17 b5 bd
       -0.034146246 -0.12054802 -0.13051768 -0.088422954
000200 91 4a eb 3c 80 69 9b 3c a2 31 02 bd 61 b0 49 3e
       0.02872208 0.018971205 -0.031785615 0.1969619
000210 a4 fd c5 bc f5 40 35 be ef 2e c2 3c 7a 42 e1 3d
       -0.024168797 -0.1770056 0.02370402 0.109990075
000220 07 65 52 bd 8d 1e 39 bd 7a c4 1a be 16 dd 8f be
       -0.05136588 -0.04519515 -0.15114012 -0.28098363
000230 1c d0 59 be 9c 3b a8 be b4 76 81 be 1a bc 87 3c
       -0.21270794 -0.32857978 -0.25285876 0.016569186
000240 cf 03 34 3e f3 66 91 bd 08 2d 9a be c0 43 85 3c
       0.17579578 -0.07099714 -0.3011248 0.016267657
000250 dd 17 e5 3d aa 94 fc 3d 39 fb c0 3c 05 a9 46 be
       0.11186192 0.12333043 0.023557292 -0.19400413
000260 8a 32 34 3d 18 9d 34 3e 15 ed 18 bc e5 d0 b0 be
       0.04399351 0.17638052 -0.0093338685 -0.34534374
000270 98 77 28 be 55 8d 44 be d2 eb ac 3c 4d 0e b5 bc
       -0.16451871 -0.19194539 0.021108542 -0.022101546
000280 f5 36 e6 3c ad 72 db 3d ff 9c 24 be f0 d3 ec 3d
       0.028102377 0.10715232 -0.16075514 0.11563861
000290 e2 0a 8e bd c0 d6 38 bb 3f 42 4b 3d af 89 a3 3d
       -0.069356695 -0.0028204173 0.049623724 0.079852454
0002a0 92 8e 71 3e b8 83 e8 bd 2d 87 10 bd 48 7c 23 bd
       0.23589543 -0.11353248 -0.035285164 -0.039913446
0002b0 5e 61 8e 3b a0 86 00 3d bb c8 c6 3d 58 25 06 be
       0.004345103 0.03137839 0.09706255 -0.13100183
0002c0 d7 c1 cd bd 33 1f 2b 3e a6 70 11 3c 87 23 e9 3d
       -0.10046738 0.1671112 0.008876955 0.113837294
0002d0 f7 02 97 3d 2f 4f 03 3e f2 26 01 be c4 eb b8 3c
       0.073736124 0.12823175 -0.12612513 0.02257336
0002e0 81 55 0b be 44 0f c0 bd eb 5a c2 bd 5f 0a b2 bd
       -0.13606836 -0.09377912 -0.094899975 -0.086933844
0002f0 9c 55 de 3d ec 27 22 3e 10 01 78 bd e2 41 1e bd
       0.108561724 0.15835541 -0.06054789 -0.03863705
000300 c0 e5 f4 3d 9e e9 0c 3e 49 ae e6 3d 77 42 09 be
       0.11957884 0.13760993 0.11263711 -0.1340426
000310 90 26 f5 bb 23 fe 5e be cb d0 03 3e 98 60 01 be
       -0.0074814036 -0.21776633 0.12872617 -0.12634504
000320 9c 05 c7 3d 9e d0 20 be 6b 9a 55 3d 78 4e 87 be
       0.09717867 -0.15704581 0.052149218 -0.26427054
000330 02 05 f0 bd fa 62 4f 3c 64 42 04 bd 8d 32 c5 bd
       -0.11719705 0.012657875 -0.032289878 -0.096287824
000340 63 87 64 3d 79 1a d7 bc 92 70 ae 3d b5 89 94 3d
       0.055793177 -0.02625774 0.08517565 0.07252828
000350 44 b4 99 3d 95 fd 2b 3e d8 5a 79 bc 85 22 86 bd
       0.07505086 0.16795953 -0.015219413 -0.06549553
000360 0b e1 31 be 5d ba 93 3d 13 0c c5 3d 92 37 33 3e
       -0.17371003 0.0721328 0.096214436 0.17501667
000370 a4 fd f9 bc 8e 41 e1 3d 29 d0 4d be 44 77 f7 bd
       -0.030516453 0.10998832 -0.20098938 -0.12083295
000380 5a 71 2c bc fa d4 ee 3d cd 88 c6 bd e6 63 69 bb
       -0.010525072 0.11661716 -0.096940614 -0.0035612523
000390 08 35 2e bd 3d 79 2a 3d c7 fe 6c 3d 44 af ad bd
       -0.042531043 0.041619528 0.057860162 -0.08480695
0003a0 7f 8d a5 3d 52 2b 44 be d0 d2 c0 3d b6 ad 02 be
       0.08083629 -0.1915715 0.09415209 -0.12761578
0003b0 a3 7e c4 3d 1a cc d5 bd 4c 4a 3d 3d 49 30 90 bc
       0.095944665 -0.1043932 0.046213433 -0.01760115
0003c0 73 99 11 be 9c 06 44 be ad 85 fc bd 69 a5 f3 bd
       -0.14218692 -0.19143146 -0.12330184 -0.11896784
0003d0 5f f7 94 3d 07 4e 05 3e 31 75 b3 bc 4f 6e d9 bd
       0.07273745 0.13018046 -0.021906467 -0.10616743
0003e0 2a 89 0f be cb 74 b1 bc 86 62 75 3d 00 ba 39 3e
       -0.14017168 -0.021662137 0.059908412 0.1813736
0003f0 4b 03 7d 3b 96 78 7a 3c 0b 92 4a be 74 e0 f0 bd
       0.00386067 0.015287539 -0.19782273 -0.11761561

model.2.bias f4 [16]
000000 ad fb cf bd a6 a4 ba bd ab bf 8e bc 80 70 93 3c
       -0.10155425 -0.091134354 -0.017425379 0.01799798
000010 92 0d 8d bd fb 20 0b 3d 6b ca 7a 3e e0 72 e5 bd
       -0.06887354 0.033967 0.24491279 -0.11203551
000020 ba 02 42 bd df c4 1b 3e 80 24 88 3e df 4c d7 3d
       -0.04736588 0.15211819 0.26590347 0.10512709
000030 be 40 e6 bd 14 f2 06 be bf 1e 6c be 08 a7 31 3e
       -0.11242817 -0.13178283 -0.23058604 0.17348874

model.4.weight f4 [1, 16]
000000 c6 bb 24 be 22 a2 df bd 43 99 21 be fa 28 95 bd
       -0.16087255 -0.10919596 -0.15781121 -0.07283206
000010 dc 22 14 3d 8b b5 87 3d bd 85 21 3d 70 12 a3 bd
       0.036166057 0.066264234 0.039434183 -0.07962501
000020 15 05 11 be 95 2d 8e 3e b0 c5 82 3e 80 7a d5 bd
       -0.14162095 0.2776915 0.2554145 -0.10423756
000030 38 51 0c bd f0 7d 9a bd a3 94 00 be 39 87 c1 3d
       -0.034257144 -0.07543552 -0.125567 0.0944962
