Backend/model/aqi_regressor.pth (torch, 6045 bytes, 5 tensors)

model.0.weight f4 [32, 4]
-0.06719965 -0.40276796 -0.45893818 -0.46706653 0.35424197 0.0040515065 0.40177363 -0.050935328
0.4960339 0.47248292 -0.018250048 -0.03157276 -0.049382508 0.17270887 -0.29721338 0.10583472
0.39099544 0.07507366 0.017888129 0.16064847 0.37096524 -0.22778124 -0.46062934 -0.021842122
0.026892006 0.0383572 0.39453644 -0.22139615 0.4026475 -0.21352363 -0.19424635 -0.39216137
-0.14559639 -0.36610466 -0.47905403 -0.23158115 0.16383606 -0.18782508 -0.038566828 -0.4319324
0.48237193 0.42464876 0.20619851 0.48693752 0.236758 -0.35857517 -0.36784464 -0.03224349
-0.25883287 0.20297104 -0.10735983 -0.30986315 0.30559856 -0.14287317 -0.40632147 0.09078205
0.03653246 0.4150439 -0.31163156 -0.03404653 -0.39992023 0.13071764 0.3832143 -0.30971056
-0.3058533 0.31368822 -0.37219626 0.24058604 -0.1794284 -0.015412748 -0.4967636 -0.1532507
0.41411155 -0.3411144 0.4162339 0.16921628 0.0650624 -0.401904 0.23874038 0.0018153787
0.4181016 -0.32747674 0.038573265 0.13662684 -0.21621239 0.10631192 -0.13522285 0.44486207
0.24208808 -0.05567962 0.13576877 0.23169535 0.13600683 -0.46192747 -0.37438154 0.31100124
0.40267563 0.30763507 -0.103977025 0.42337382 -0.13207132 -0.3947987 -0.4066552 -0.37883043
0.25818717 -0.34476793 -0.40425223 0.17443836 -0.31823766 -0.4902169 -0.15282243 -0.34870106
-0.35471982 0.006023228 -0.17940545 -0.09282923 -0.005146265 -0.3701175 -0.16820198 0.11688906
-0.40062785 -0.37941468 0.06543791 0.49065185 0.458264 -0.33670247 -0.12709045 -0.20536059
00000000: f89f 89bd 9a37 cebe f2f9 eabe 5823 efbe
00000010: 345f b53e 80c2 843b 46b5 cd3e 90a1 50bd
00000020: 28f8 fd3e 48e9 f13e 2081 95bc 7052 01bd
00000030: 5045 4abd 98da 303e 5a2c 98be e0bf d83d
00000040: 8e30 c83e 38c0 993d 208a 923c 0881 243e
00000050: 28ef bd3e 7c3f 69be 9cd7 ebbe 40ee b2bc
00000060: a04c dc3c 701c 1d3d ae00 ca3e acb5 62be
00000070: d027 ce3e f0a5 5abe 84e8 46be 60c9 c8be
00000080: 3817 15be 1272 bbbe 9246 f5be 9c23 6dbe
00000090: a4c4 273e 3855 40be 40f8 1dbd 3e26 ddbe
000000a0: 74f9 f63e 906b d93e b425 533e e04f f93e
000000b0: b070 723e 2a97 b7be 2256 bcbe c011 04bd
000000c0: be85 84be a4d7 4f3e 78df dbbd 62a6 9ebe
000000d0: 6a77 9c3e 584d 12be 5e09 d0be f0eb b93d
000000e0: 10a3 153d a280 d43e 2c8e 9fbe 6074 0bbd
000000f0: 58c2 ccbe d8da 053e aa34 c43e 6292 9ebe
00000100: ce98 9cbe be9b a03e 8290 bebe 305c 763e
00000110: 14bc 37be c085 7cbc cc57 febe c0ed 1cbe
00000120: 6e06 d43e 8ca6 aebe 9c1c d53e 0847 2d3e
00000130: 703f 853d 5cc6 cdbe 5c78 743e 00f2 ed3a
00000140: 6a11 d63e 08ab a7be 00ff 1d3d e8e7 0b3e
00000150: c866 5dbe 10ba d93d dc77 0abe f6c4 e33e
00000160: f0e5 773e 5010 64bd f806 0b3e 8c41 6d3e
00000170: 6045 0b3e c281 ecbe f0ae bfbe 8e3b 9f3e
00000180: 802b ce3e 5882 9d3e e8f1 d4bd 74c4 d83e
00000190: b43d 07be 0e23 cabe 1c35 d0be 10f6 c1be
000001a0: 1c31 843e 6c85 b0be 26fa cebe f89f 323e
000001b0: 0cf0 a2be b6fd fabe 7c7d 1cbe f288 b2be
000001c0: d69d b5be 805e c53b 10b6 37be 401d bebd
000001d0: 00a2 a8bb 0a80 bdbe 243d 2cbe 8863 ef3d
000001e0: 181f cdbe a442 c2be 5004 863d b836 fb3e
000001f0: 94a1 ea3e 4464 acbe 0024 02be 0c4a 52be

model.0.bias f4 [32]
-0.106683075 -0.22832435 0.02594608 -0.11563444 0.117019296 0.4678672 0.20047843 0.46010834
0.18682879 -0.2022587 -0.11758262 -0.11902958 -0.22985893 -0.31684136 0.44834757 -0.32839662
0.038580894 0.49212617 -0.0026911497 0.43254423 0.26391995 -0.2182771 0.2091785 0.48995775
0.07136321 0.12784243 -0.03042978 0.25729954 -0.062306225 0.4088763 -0.21773571 -0.33908683
00000000: a87c dabd dccd 69be e08c d43c c0d1 ecbd
00000010: d0a7 ef3d 4a8c ef3e 384a 4d3e 5293 eb3e
00000020: 0c50 3f3e e81c 4fbe 28cf f0bd c8c5 f3bd
00000030: 2460 6bbe 0839 a2be d08d e53e 9a23 a8be
00000040: 0007 1e3d f6f7 fb3e 005e 30bb 7076 dd3e
00000050: 8420 873e 0884 5fbe e432 563e bedb fa3e
00000060: e026 923d 20e9 023e e047 f9bc c4bc 833e
00000070: d034 7fbd 3c58 d13e 1cf6 5ebe ca9c adbe

model.2.weight f4 [16, 32]
0.118475966 -0.032227125 -0.11116836 0.0224998 -0.120311506 -0.13013425 -0.008781907 0.004714905
0.04753956 -0.17055704 0.012212597 -0.09728338 -0.072583996 0.14819756 -0.12006305 -0.16372101
-0.10615195 -0.008443657 -0.0868165 -0.078346945 -0.032364376 0.081941776 -0.15772277 0.07305467
-0.05987297 -0.1363899 0.106047094 0.14089099 0.005076525 0.12809633 -0.01840652 0.08986077
-0.0846562 -0.14103672 -0.13769788 0.11685852 -0.08542833 -0.048811235 0.09481026 -0.11566212
0.17314442 0.0067477524 -0.010186008 0.076242425 -0.14767316 -0.10609487 0.005669615 -0.03458522
-0.0067801215 0.14322412 -0.04526013 -0.14183804 0.032032087 -0.03964088 0.024905585 0.032196146
0.016317384 -0.16838133 0.14359212 -0.1518401 0.007968367 0.033416443 0.06544748 0.08296563
0.13735202 -0.007948179 -0.09409277 -0.061121486 -0.1251734 -0.076435834 0.09473967 -0.17091592
0.121968634 -0.057232406 0.15817893 -0.11811753 -0.11780181 -0.04916318 0.08877555 -0.078338325
-0.14072165 -0.0018949433 0.06441819 -0.02961345 -0.12892434 0.028932441 -0.055723928 0.11367258
-0.108108185 0.02165071 0.13650839 -0.06006457 -0.051506165 0.031044504 -0.073632844 0.003548849
0.00808444 0.09661543 -0.12921469 -0.080470346 -0.13200839 0.036780037 0.071923636 0.05386536
0.07825843 0.07930471 -0.041414715 0.07008336 -0.038539603 -0.117074944 0.112382464 0.07025896
0.028723225 0.11617964 -0.10616477 -0.0384708 -0.16557615 0.10773571 -0.021865258 -0.12058982
-0.09073422 -0.09240686 -0.020757765 -0.092811845 0.10549122 -0.123572916 -0.060666595 0.11916515
0.026126662 -0.08280488 0.0836103 -0.02917978 0.05993016 -0.038714282 -0.11209647 0.056348648
0.054509066 0.17538986 -0.036549725 0.17574005 0.005560518 0.121940985 0.1600523 -0.1680836
0.10255645 -0.0096376985 0.10569597 0.16551661 -0.050666094 0.10067542 0.036059137 -0.033121627
0.0066362107 0.00012896936 0.04877151 0.15286112 0.046613675 0.1656679 -0.09185543 -0.11328624
0.07173102 0.013127268 0.017758006 0.03746092 -0.045175016 -0.14932781 0.05536347 -0.0951349
-0.08197693 -0.07332454 -0.054589733 0.11503314 0.16505331 0.07792705 -0.11138255 -0.1307614
-0.013480248 -0.1337792 0.08680607 -0.124209836 -0.13171987 0.060888667 -0.094087906 -0.055263262
-0.01539833 0.0007109541 -0.057576768 0.06195357 -0.122372106 0.00508154 -0.06803555 0.035865072
-0.14738911 0.017895699 -0.016863354 0.15105428 0.051528547 0.05373194 -0.027600896 0.12407122
0.043620344 -0.07942422 -0.06863817 0.13279541 0.16987333 0.034080446 0.1265585 -0.1540514
0.05278977 -0.115599744 -0.09702862 0.15330973 -0.077700935 0.097711526 0.06449285 0.0053445366
-0.048171908 -0.053979766 -0.09003979 0.13395448 -0.060407095 0.14103098 0.15444356 -0.12586425
0.10543131 -0.14306708 -0.07443043 0.1312024 0.14685607 -0.15329468 0.08390369 -0.07882531
-0.08470267 0.1548524 -0.075122096 0.03850698 -0.021597078 -0.05184465 0.1251774 -0.08368168
0.13476044 -0.16776285 0.14798433 0.085220754 -0.16229984 -0.08277691 0.10900439 -0.15604423
0.16583027 0.12531532 -0.028877925 0.09104657 0.110667504 0.15857798 0.056281637 -0.041399162
00000000: 87a3 f23d 9700 04bd 3dac e3bd 8051 b83c
00000010: e165 f6bd ea41 05be fde1 0fbc 7d7f 9a3b
00000020: d7b8 423d 81a6 2ebe 5817 483c 823c c7bd
00000030: eba6 94bd 1ac1 173e 9ee3 f5bd 7ba6 27be
00000040: 3266 d9bd 4457 0abc d9cc b1bd 5d74 a0bd
00000050: 8290 04bd 17d1 a73d 1482 21be b09d 953d
00000060: 5c3d 75bd cba9 0bbe 382f d93d ba45 103e
00000070: fa58 a63b af2b 033e 45c9 96bc ec08 b83d
00000080: 3b60 adbd ee6b 10be ac00 0dbe 8553 ef3d
00000090: 0cf5 aebd 4aee 47bd e22b c23d 43e0 ecbd
000000a0: c54c 313e 401c dd3b 37e3 26bc fd24 9c3d
000000b0: a237 17be 4448 d9bd 2ec8 b93b 3ba9 0dbd
000000c0: c82b debb 58a9 123e b062 39bd fe3d 11be
000000d0: 1434 033d 7a5e 22bd cc06 cc3c 1be0 033d
000000e0: 09ac 853c 286c 2cbe d009 133e f97b 1bbe
000000f0: c18d 023c aedf 083d 5409 863d e2e9 a93d
00000100: 02a6 0c3e 1439 02bc b6b3 c0bd 865a 7abd
00000110: 752d 00be 648a 9cbd df06 c23d 9504 2fbe
00000120: b1ca f93d 876c 6abd a8f9 213e 9be7 f1bd
00000130: 1342 f1bd 555f 49bd f5cf b53d d86f a0bd
00000140: 5619 10be bf5f f8ba afed 833d e897 f2bc
00000150: be04 04be ba03 ed3c c63e 64bd 2bcd e83d
00000160: d367 ddbd d45c b13c dbc8 0b3e 4406 76bd
00000170: 21f8 52bd 0b51 fe3c d1cc 96bd ce93 683b
00000180: 9974 043c 50de c53d db50 04be a3cd a4bd
00000190: 352d 07be aaa6 163d b34c 933d eca1 5c3d
000001a0: f545 a03d 826a a23d 7aa2 29bd dd87 8f3d
000001b0: b4db 1dbd fdc4 efbd c728 e63d eee3 8f3d
000001c0: f84c eb3c 97ef ed3d ea6c d9bd 8f93 1dbd
000001d0: cb8c 29be 8aa4 dc3d c51e b3bc ccf7 f6bd
000001e0: ddd2 b9bd cf3f bdbd 300c aabc 2314 bebd
000001f0: c80b d83d cc13 fdbd 897d 78bd dc0c f43d
00000200: 9507 d63c 9b95 a9bd e13b ab3d 6f0a efbc
00000210: 5479 753d de92 1ebd d692 e5bd d7cd 663d
00000220: e644 5f3d 6699 333e 2ab5 15bd 33f5 333e
00000230: 0135 b63b 32bc f93d c0e4 233e 1b1e 2cbe
00000240: 1e09 d23d 70e7 1dbc 2177 d83d 307d 293e
00000250: 4087 4fbd ea2e ce3d bfb2 133d 8baa 07bd
00000260: 9274 d93b f33b 0739 a3c4 473d a087 1c3e
00000270: fbed 3e3d d9a4 293e b31e bcbd 9e02 e8bd
00000280: b7e7 923d c113 573c 3d79 913c 9f70 193d
00000290: 7009 39bd 64e9 18be cec4 623d 16d6 c2bd
000002a0: 85e3 a7bd 2d2b 96bd 7c99 5fbd 7f96 eb3d
000002b0: bc03 293e 3898 9f3d 891c e4bd 51e6 05be
000002c0: 42dc 5cbc 6afd 08be 61c7 b13d ba61 febd
000002d0: 93e1 06be 6566 793d 29b1 c0bd bb5b 62bd
000002e0: 4749 7cbc 525f 3a3a 9ed5 6bbd 07c3 7d3d
000002f0: 3a9e fabd 0c83 a63b 3956 8bbd 41e7 123d
00000300: 2ced 16be 009a 923c 0425 8abc f9ad 1a3e
00000310: 990f 533d 0616 5c3d 461b e2bc 0d19 fe3d
00000320: 3fab 323d 2aa9 a2bd 2b92 8cbd 85fb 073e
00000330: 46f3 2d3e f097 0b3d 8d98 013e a6bf 1dbe
00000340: 163a 583d 8fbf ecbd f1b6 c6bd 3afd 1c3e
00000350: ab21 9fbd fb1c c83d d414 843d 3921 af3b
00000360: e84f 45bd e319 5dbd c866 b8bd 5d2b 093e
00000370: 6e6d 77bd 6d6a 103e 7426 1e3e 8fe2 00be
00000380: 5fec d73d 2d80 12be fb6e 98bd ec59 063e
00000390: 7061 163e 48f9 1cbe b3d5 ab3d 2a6f a1bd
000003a0: 9878 adbd a191 1e3e 9dd9 99bd 7fb9 1d3d
000003b0: 5bec b0bc 0e5b 54bd 812e 003e 4d61 abbd
000003c0: a4fe 093e 06ca 2bbe 3489 173e 3888 ae3d
000003d0: ee31 26be f186 a9bd b23d df3d 0fca 1fbe
000003e0: 69cf 293e a952 003e 6691 ecbc a076 ba3d
000003f0: a5a5 e23d 4462 223e 9387 663d 2b92 29bd

model.2.bias f4 [16]
0.08593464 0.025268089 0.1326704 -0.10722952 -0.10858501 0.12813117 -0.018942606 -0.17220719
-0.13453284 0.107905075 -0.069128014 0.10459423 0.071187966 0.07637945 -0.04779124 -0.16430826
00000000: 80fe af3d 06ff ce3c c0da 073e 279b dbbd
00000010: d161 debd d134 033e 862d 9bbc 1557 30be
00000020: fac2 09be 56fd dc3d fd92 8dbd 8035 d63d
00000030: ffca 913d d46c 9c3d bfc0 43bd 6d40 28be

model.4.weight f4 [1, 16]
0.10272542 0.22798222 0.076179594 -0.19233394 0.024481922 -0.09765273 -0.10768908 -0.17779163
0.11059478 0.10523042 -0.16255075 0.0797216 0.034092903 0.014202744 -0.1915982 -0.20054948
00000000: b461 d23d 2c74 693e 0c04 9c3d 30f3 44be
00000010: 508e c83c 28fe c7bd 188c dcbd 020f 36be
00000020: 847f e23d 0c83 d73d b473 26be 1445 a33d
00000030: 00a5 0b3d a0b2 683c 5232 44be d85c 4dbe
