Backend/model/aqi_regressor.pth (torch, 5981 bytes, 5 tensors)

model.0.weight f4 [32, 4]
-0.31592762 -0.19484112 0.1497182 -0.058990467 -0.29125348 -0.004687153 -0.007709468 -0.12811953
0.36486948 -0.3386677 -0.026309486 -0.12837853 -0.32687503 0.22453073 0.07538623 0.015825255
-0.05480509 -0.06735526 0.28491524 0.25571033 -0.3368419 0.16921514 0.36693314 0.28389803
0.0027542708 -0.1785172 -0.077101804 -0.29421464 -0.4291201 -0.26209575 0.17099097 0.24396065
0.12764794 -0.26056996 0.33187667 0.017828744 0.5399525 0.32941175 -0.21267359 -0.30736253
-0.17343397 -0.39917848 0.22522481 -0.20847584 -0.3277529 -0.26040435 0.0691456 0.21780543
-0.26028234 0.32858053 -0.13028109 -0.27384564 0.09724739 0.114170186 -0.374572 0.40677932
-0.43449327 -0.0015891495 0.038861074 0.16052921 -0.27737528 0.15848668 0.31269497 -0.050780825
-0.16356836 0.05708895 -0.09954519 0.45653468 0.22516762 -0.06846961 -0.18170229 0.13864714
0.13888118 0.23184195 0.27433187 0.087284684 -0.08199459 0.29263836 -0.2745611 -0.12383542
0.19085908 0.014774312 0.3243256 0.07286108 0.10157758 -0.04191247 -0.082479574 -0.22027285
0.36849457 -0.1979547 0.073731855 0.18234564 0.28362873 -0.41278657 0.25187495 0.36985037
0.23397823 -0.2891562 0.1164998 0.23404457 -0.30227768 0.05710573 0.276565 0.18790519
-0.17993191 -0.1947443 0.31714013 -0.13490815 -0.108086266 0.13345091 0.36433426 -0.09968932
-0.12347122 -0.29234385 0.27894017 0.34248823 0.114603706 0.17045684 -0.16169438 -0.3709477
0.53361446 0.0095407115 0.104186796 0.1986867 -0.2693251 0.37022483 -0.37221962 -0.48635677
00000000: 44c1 a1be 6e84 47be ba4f 193e fd9f 71bd
00000010: 2d1f 95be b096 99bb b49f fcbb c431 03be
00000020: 2cd0 ba3e da65 adbe fe86 d7bc a975 03be
00000030: 2a5c a7be 62eb 653e 1964 9a3d f7a3 813c
00000040: 4d7b 60bd 8ef1 89bd 69e0 913e 77ec 823e
00000050: 8b76 acbe bc46 2d3e a9de bb3e 155b 913e
00000060: ff80 343b 36cd 36be 8de7 9dbd 4da3 96be
00000070: a1b5 dbbe 6a31 86be 4218 2f3e d2d0 793e
00000080: 24b6 023e 6d69 85be bdeb a93e 960d 923c
00000090: 543a 0a3f a8a8 a83e 1bc7 59be 9f5e 9dbe
000000a0: ad98 31be 1f61 ccbe 55a1 663e b17a 55be
000000b0: 3acf a7be b853 85be 359c 8d3d 6308 5f3e
000000c0: ba43 85be b53b a83e 6868 05be 7f35 8cbe
000000d0: a429 c73d 0fd2 e93d e7c7 bfbe 6145 d03e
000000e0: e775 debe 024b d0ba ca2c 1f3d c561 243e
000000f0: 2204 8ebe 554a 223e 8e19 a03e 8eff 4fbd
00000100: 777e 27be 1ad6 693d 59de cbbd eabe e93e
00000110: 5792 663e cb39 8cbd 2a10 3abe 84f9 0d3e
00000120: de36 0e3e fa67 6d3e 3a75 8c3e 50c2 b23d
00000130: c8ec a7bd b2d4 953e 4693 8cbe 6d9d fdbd
00000140: 9070 433e f50f 723c 010e a63e 3138 953d
00000150: e807 d03d 69ac 2bbd 0deb a8bd 358f 61be
00000160: 52ab bc3e a3b4 4abe ba00 973d d1b8 3a3e
00000170: c937 913e c358 d3be c1f5 803e 075d bd3e
00000180: fd97 6f3e 480c 94be 7297 ee3d 61a9 6f3e
00000190: 24c4 9abe b3e7 693d ed99 8d3e 386a 403e
000001a0: 1240 38be 0d6b 47be 3160 a23e 5d25 0abe
000001b0: 555c ddbd 5ba7 083e 058a ba3e ea29 ccbd
000001c0: 7bde fcbd 18ae 95be 3fd1 8e3e 9e5a af3e
000001d0: 59b5 ea3d 3d8c 2e3e 3693 25be dbec bdbe
000001e0: f59a 083f a550 1c3c e35f d53d 8774 4b3e
000001f0: fbe4 89be 1c8e bd3e 9293 bebe c103 f9be

model.0.bias f4 [32]
-0.40881747 -0.3824093 -0.2863821 -0.32842517 -0.40348676 -0.32049206 -0.29816625 -0.4932632
0.063335106 0.61885065 -0.33060417 0.00018228883 -0.52341694 -0.06905148 -0.05602592 -0.052250635
-0.37662014 -0.34172103 -0.4813601 -0.17622711 -0.44779465 -0.48271537 -0.2089741 -0.4131371
0.46460694 -0.1701676 -0.040580243 0.11955378 0.41709688 -0.00012813316 -0.20534581 -0.44098368
00000000: 8650 d1be 27cb c3be ada0 92be 5827 a8be
00000010: d195 cebe 8917 a4be 3fa9 98be ff8c fcbe
00000020: d6b5 813d ff6c 1e3f f344 a9be c924 3f39
00000030: a7fe 05bf dd6a 8dbd 6f7b 65bd c304 56bd
00000040: 5bd4 c0be 0ff6 aebe d574 f6be e174 34be
00000050: 5745 e5be 7826 f7be 4efd 55be b586 d3be
00000060: f6e0 ed3e 6a40 2ebe 7837 26bd 9dd8 f43d
00000070: b98d d53e 7c5b 06b9 2c46 52be 9dc8 e1be

model.2.weight f4 [16, 32]
-0.0760769 0.035307188 -0.06177998 -0.10114526 -0.061326504 0.0018712719 0.0392914 -0.046249267
0.0024912648 0.11266041 0.0035324092 0.03394649 0.011305613 -0.015410457 -0.008271732 0.086290754
0.009578478 0.05060675 -0.022427129 0.15433882 0.0791445 0.08046446 0.061070416 0.07101833
0.020682618 0.03868689 0.017115772 -0.061103936 -0.098649174 0.10733668 -0.09334301 0.055896617
0.024117675 -0.015795482 -0.041794196 -0.09387576 -0.16917594 0.133617 0.024997097 0.010113129
0.15084861 0.07387006 -0.09072545 0.03644218 0.052958675 0.03074402 -0.1575186 -0.014202453
-0.14578725 -0.060262937 0.0049072737 -0.1301533 0.06537656 0.12071986 -0.11070445 0.028009284
0.11515741 -0.08677093 0.010622478 -0.017541056 -0.013960415 -0.07420913 0.029968793 0.080942914
0.059812874 0.12464528 -0.10007612 0.036914796 0.10400288 -0.14848532 -0.0126371775 -0.2034458
-0.1313491 0.009746827 0.0576686 0.008711366 0.019190148 -0.07291764 -0.048266865 0.0035485567
0.07686067 -0.10174966 0.0021187072 0.05500526 -0.17201835 0.0317648 0.009578768 -0.039140396
0.14918731 0.14143832 -0.10146394 0.14723915 0.06566863 -0.13170896 -0.26027834 -0.035315488
0.0943173 0.113483824 -0.15984164 -0.098375335 -0.043861683 0.010554703 0.07243869 -0.2005311
-0.14911583 -0.015636079 -0.16702263 0.05416354 0.0012810898 0.059689984 0.06363512 -0.033221
0.06172209 -0.09671018 -0.04532683 0.08956652 0.08070846 0.06770361 0.15162188 0.035709467
0.16353592 -0.064603135 0.026756171 0.044449177 0.061026175 0.041193616 -0.113515764 -0.08504831
0.2601291 -0.18827066 0.11352691 0.18847929 -0.10769311 -0.031611707 0.0054608975 0.011794078
0.035590757 -0.06494721 -0.022824308 -0.052339192 -0.18979943 -0.08203362 -0.36201063 -0.24226476
0.06602264 -0.046494525 0.06795664 0.0009824781 -0.06727358 -0.46550393 0.10869772 -0.07673223
0.20493983 0.17802837 -0.057278886 0.13137242 -0.03294069 -0.07357003 -0.07977745 -0.15943806
0.045630686 -0.14722565 -0.16463733 0.10078062 0.09981003 0.07689932 0.08983367 -0.16555208
-0.07940627 0.044208735 -0.09418964 0.13539822 -0.1759533 -0.15172789 0.06816722 0.0020215719
0.06732522 0.1371402 -0.13690895 -0.06805929 -0.06973783 0.023009362 -0.13904372 0.16834539
-0.0016108095 -0.08881864 0.04868916 0.031037878 -0.104280666 0.094835706 0.0021289408 0.008281018
-0.028195884 -0.13004045 -0.08598813 0.13704033 0.0960508 -0.008845651 0.0986982 -0.17092687
-0.08165972 0.14649096 -0.08947535 0.038583692 -0.034410022 -0.012313893 -0.052142896 -0.01735086
0.044597603 -0.09289196 -0.04253623 -0.17303681 -0.08828828 0.08498523 0.13188311 -0.04959363
0.13049807 -0.046893936 0.13956097 -0.07372597 0.1489954 -0.06800922 0.11078076 0.056750823
-0.041683067 -0.033255905 0.11247821 0.10991881 -0.1348134 -0.0005557007 -0.09161272 -0.049309988
-0.08343244 0.07097685 0.06274926 -0.10524791 -0.045011885 0.008717153 0.09263435 0.07523673
0.008481113 -0.03038276 0.012489616 -0.07612407 -0.08006072 -0.115235224 0.16334048 0.14698735
0.034797553 -0.11204757 0.073328085 -0.048171367 0.13390855 0.033059075 0.11089923 -0.10105847
00000000: 35ce 9bbd 459e 103d 010d 7dbd 3f25 cfbd
00000010: 8031 7bbd 7745 f53a 05f0 203d df6f 3dbd
00000020: 7d44 233b 80ba e63d fe7f 673b 7a0b 0b3d
00000030: 2e3b 393c 247c 7cbc 2986 07bc 35b9 b03d
00000040: 0cef 1c3c 0649 4f3d 19b9 b7bc ff0a 1e3e
00000050: 8316 a23d 8dca a43d f924 7a3d 0f72 913d
00000060: 986e a93c 2576 1e3d 6036 8c3c 1f48 7abd
00000070: 9408 cabd 55d3 db3d 9f2a bfbd daf3 643d
00000080: 6e92 c53c 8765 81bc 6430 2bbd ef41 c0bd
00000090: 753c 2dbe e5d2 083e b6c6 cc3c 8ab1 253c
000000a0: 0f78 1a3e 3049 973d 44ce b9bd 6544 153d
000000b0: 32eb 583d e2da fb3c 8e4c 21be 68b1 68bc
000000c0: 4149 15be 45d6 76bd 32cd a03b e846 05be
000000d0: 25e4 853d f93b f73d 04b9 e2bd ba73 e53c
000000e0: a6d7 eb3d f5b4 b1bd e709 2e3c 43b2 8fbc
000000f0: 39ba 64bc f5fa 97bd 1d81 f53c 66c5 a53d
00000100: 58fe 743d 0646 ff3d b5f4 ccbd f833 173d
00000110: 76ff d43d 890c 18be 2a0c 4fbc 1954 50be
00000120: 6180 06be 28b1 1f3c e935 6c3d 1eba 0e3c
00000130: a834 9d3c d855 95bd 7ab3 45bd e78e 683b
00000140: 2069 9d3d 2062 d0bd 02da 0a3b 324d 613d
00000150: 9425 30be cf1b 023d 44f0 1c3c ae51 20bd
00000160: 8fc4 183e 35d5 103e 54cc cfbd dcc5 163e
00000170: 467d 863d b7de 06be 3443 85be f9a6 10bd
00000180: 6e29 c13d 356a e83d 87ad 23be 0279 c9bd
00000190: 4fa8 33bd a2ed 2c3c bc5a 943d 0658 4dbe
000001a0: d2b1 18be 3c17 80bc fb07 2bbe 97da 5d3d
000001b0: 3eea a73a 7c7d 743d 2153 823d be12 08bd
000001c0: 4dd0 7c3d fd0f c6bd a0a8 39bd a76e b73d
000001d0: 7a4a a53d 31a8 8a3d c442 1b3e 1744 123d
000001e0: f675 273e a64e 84bd c22f db3c 5710 363d
000001f0: 95f6 793d a3ba 283d f47a e8bd cf2d aebd
00000200: a42f 853e 06ca 40be cc80 e83d b700 413e
00000210: 358e dcbd 477b 01bd 54f1 b23b f33b 413c
00000220: 9dc7 113d 0b03 85bd 0bfa babc 9f61 56bd
00000230: c85a 42be 3e01 a8bd 7559 b9be 4114 78be
00000240: e136 873d 0b71 3ebd da2c 8b3d 7fc6 803a
00000250: bbc6 89bd 8856 eebe e99c de3d ca25 9dbd
00000260: bfdb 513e 124d 363e 449d 6abd 7e86 063e
00000270: d1ec 06bd e2ab 96bd 5c62 a3bd bb43 23be
00000280: 3ee7 3a3d 52c2 16be b096 28be 1266 ce3d
00000290: 3369 cc3d 647d 9d3d b7fa b73d 7c86 29be
000002a0: c19f a2bd 3814 353d 7fe6 c0bd d5a5 0a3e
000002b0: 1a2d 34be 8e5e 1bbe 419b 8b3d 597c 043b
000002c0: cee1 893d 7b6e 0c3e dc31 0cbe ab62 8bbd
000002d0: b5d2 8ebd 217e bc3c 7a61 0ebe bc62 2c3e
000002e0: cc21 d3ba 8ce6 b5bd 496e 473d 2643 fe3c
000002f0: 1a91 d5bd 3939 c23d b385 0b3b 1bad 073c
00000300: 0efb e6bc 5329 05be 8b1a b0bd 4d54 0c3e
00000310: 48b6 c43d 59ed 10bc 4822 ca3d 7407 2fbe
00000320: 363d a7bd ba01 163e da3e b7bd ef09 1e3d
00000330: 86f1 0cbd 36c0 49bc ca93 55bd 6423 8ebc
00000340: faab 363d 243e bebd 783a 2ebd 9030 31be
00000350: 7cd0 b4bd bc0c ae3d 5e0c 073e b122 4bbd
00000360: 49a1 053e db13 40bd 12e9 0e3e a4fd 96bd
00000370: 4092 183e 6b48 8bbd 06e1 e23d 8d73 683d
00000380: ddbb 2abd 5837 08bd fa5a e63d 1d1d e13d
00000390: 860c 0abe 71ac 11ba 739f bbbd 45f9 49bd
000003a0: a1de aabd 505c 913d af82 803d 378c d7bd
000003b0: 625e 38bd 64d2 0e3c 14b7 bd3d b715 9a3d
000003c0: 5ef4 0a3c 44e5 f8bc 3fa1 4c3c f0e6 9bbd
000003d0: e0f6 a3bd 7200 ecbd ba42 273e da83 163e
000003e0: e187 0e3d 3279 e5bd 092d 963d 574f 45bd
000003f0: 531f 093e f468 073d 231f e33d bef7 cebd

model.2.bias f4 [16]
-0.1768876 0.18479875 0.055683922 0.15559457 0.076461546 0.2150709 0.05191164 -0.088225
0.19054978 0.24055922 0.13151464 -0.015972637 0.14135604 0.13239712 0.14033353 0.09265441
00000000: 0622 35be e23b 3d3e d314 643d 2f54 1f3e
00000010: df97 9c3d 8c3b 5c3e 4da1 543d 4faf b4bd
00000020: 7b1f 433e 2855 763e c6ab 063e 0cd9 82bc
00000030: a3bf 103e 1c93 073e 98b3 0f3e 98c1 bd3d

model.4.weight f4 [1, 16]
-0.12219075 0.0763631 0.027230995 0.12504183 0.019700566 0.11081443 0.068632334 0.031385932
0.061658356 0.102174014 -0.008777257 -0.10047914 0.05584828 0.21714889 0.20931652 0.08116278
00000000: 253f fabd 4264 9c3d 8913 df3c f70a 003e
00000010: 1563 a13c adf2 e23d 1c8f 8c3d 898e 003d
00000020: 798d 7c3d 9c40 d13d 7cce 0fbc 02c8 cdbd
00000030: 2bc1 643d 475c 5e3e 1257 563e ac38 a63d
